…
,"executionInfo":{"status":"ok","timestamp":1705766621979,"user_tz":180,"elapsed":20,"user":{"displayName":"Rodolfo Sara","userId":"12338236725166609437"}},"colab":{"base_uri":"https://localhost:8080/"},"outputId":"7443b7c3-f1be-4513-fbb4-074825fa32fa"},"execution_count":24,"outputs":[{"output_type":"stream","name":"stdout","text":["Model: \"sequential\"\n","_________________________________________________________________\n"," Layer (type)                Output Shape              Param #   \n","=================================================================\n"," conv2d (Conv2D)             (None, 48, 48, 64)        640       \n","                                                                 \n"," batch_normalization (Batch  (None, 48, 48, 64)        256       \n"," Normalization)                                                  \n","                                                                 \n"," max_pooling2d (MaxPooling2  (None, 24, 24, 64)        0         \n"," D)                                                              \n","                                                                 \n"," dropout (Dropout)           (None, 24, 24, 64)        0         \n","                                                                 \n"," conv2d_1 (Conv2D)           (None, 24, 24, 64)        36928     \n","                                                                 \n"," batch_normalization_1 (Bat  (None, 24, 24, 64)        256       \n"," chNormalization)                                                \n","                                                                 \n"," max_pooling2d_1 (MaxPoolin  (None, 12, 12, 64)        0         \n"," g2D)                                                            \n","                                                                 \n"," dropout_1 (Dropout)         (None, 12, 12, 64)        0         \n","                                                                 \n"," flatten (Flatten)           (None, 9216)              0         \n","                                                                 \n"," dense (Dense)               (None, 128)               1179776   \n","                                                                 \n"," batch_normalization_2 (Bat  (None, 128)               512       \n"," chNormalization)                                                \n","                                                                 \n"," activation (Activation)     (None, 128)               0         \n","                                                                 \n"," dropout_2 (Dropout)         (None, 128)               0         \n","                                                                 \n"," dense_1 (Dense)             (None, 256)               33024     \n","                                                                 \n"," batch_normalization_3 (Bat  (None, 256)               1024      \n"," chNormalization)                                                \n","                                                                 \n"," activation_1 (Activation)   (None, 256)               0         \n","                                                                 \n"," dropout_3 (Dropout)         (None, 256)               0         \n","                                                                 \n"," dense_2 (Dense)             (None, 7)                 1799      \n","                                                                 \n","=================================================================\n","Total params: 1254215 (4.78 MB)\n","Trainable params: 1253191 (4.78 MB)\n","Non-trainable params: 1024 (4.00 KB)\n","_________________________________________________________________\n"]}]},{"cell_type":"code","source":["model.compile(optimizer = 'a
…
